checkpoint.pth (torch_old, 28463 bytes, 6 tensors)

fc1.weight f4 [64, 37]
000000 8d 56 cd bc 68 7b 1f 3d d9 cc 1f be 53 f5 85 be
       -0.025065685 0.03893605 -0.15605487 -0.2616373
000010 3e 97 c2 3d fa 1f 81 3d 08 56 ba bd 74 79 4d bd
       0.095015034 0.06304927 -0.090984404 -0.050164655
000020 fe 61 d9 3d 28 53 41 be 9c 69 5a bb 34 46 41 be
       0.10614394 -0.18879378 -0.0033327108 -0.18874437
000030 35 b1 23 be 02 01 fd bd 3c 4f fc bd be 1b 01 3d
       -0.15985568 -0.12353708 -0.123198 0.031520598
000040 ad 47 2d bd 7a d4 97 3d 5e d4 60 bc 7c 1d 96 3c
       -0.042304683 0.074135736 -0.013722507 0.018324606
000050 c4 99 05 3e c7 6e 02 bd 85 7d 0c 3e 7e 5a df bd
       0.13046938 -0.031843927 0.13719757 -0.10905932
000060 09 b6 a1 be ed e5 3d be 87 5d 81 3d c3 b0 c9 3d
       -0.31584194 -0.18544741 0.06316667 0.09848168
000070 14 96 83 be d5 d1 52 bc ea a6 dc bd f1 16 ff 3d
       -0.25700438 -0.012867411 -0.10774024 0.124555476
000080 76 a3 66 3e f9 24 d1 be f4 0e 13 be 2c 5d cd 3c
       0.22523293 -0.4084852 -0.14361173 0.025068842
000090 05 1e c0 bd 92 51 03 3e 59 d4 32 3e 13 9b be 3c
       -0.09380726 0.12824085 0.17463817 0.023267305
0000a0 86 2e 5f 3d 8f 7f 69 be b6 b2 4d 3e f3 9c ef be
       0.054487728 -0.22802566 0.20087704 -0.4679943
0000b0 72 22 4e bb 4c 41 b8 be d0 09 45 bf f4 01 e4 3d
       -0.0031453636 -0.35987318 -0.769681 0.11133185
0000c0 38 37 98 bb 83 d2 f7 ba 68 de 4e 3e 49 9d 31 3e
       -0.0046452545 -0.0018907342 0.20202029 0.17345156
0000d0 d8 dd 44 3d e6 a4 1a bd 3c d3 f8 3d 7b 7d 0c 3e
       0.04806313 -0.037754916 0.12149665 0.13719742
0000e0 86 0b c6 bc c0 f2 41 3d 84 58 9f bd 39 19 50 be
       -0.024175417 0.047350645 -0.07780555 -0.20322122
0000f0 02 84 bf bc e9 54 1c be ee 2f d1 bd b9 b3 d3 3d
       -0.023378376 -0.15266766 -0.1021422 0.10337014
000100 9b c7 6b 3d 92 2c 0a 3e 23 57 ef 3d 3a 90 1f bc
       0.057563405 0.13493565 0.11686542 -0.009738976
000110 77 a1 3e 3e b0 11 a9 3d 41 f1 7b 3e cc 7a 81 3e
       0.18616281 0.08255327 0.2460375 0.25289
000120 9c 36 b5 3c 48 c5 fa ba 31 cf 48 bb 77 97 e7 3d
       0.022120766 -0.0019132281 -0.0030641074 0.113081865
000130 eb 46 21 3e 1b 4b 33 3e af a0 1d 3e 0b 86 40 bf
       0.1574971 0.17509119 0.15393327 -0.75204533
000140 a9 8c ad 3d a0 91 9d 3e fd 6c 9d 3d 6d 60 e8 be
       0.084740944 0.30775166 0.076868035 -0.45386067
000150 16 c8 a4 bd 4d d4 f5 bc 1c 71 16 3e 91 56 b4 3c
       -0.08045976 -0.03000846 0.14691585 0.022013934
000160 af ac f8 3d 12 bd c8 bc 8e 40 4d 3c c8 87 dc 3d
       0.12142312 -0.024504218 0.012527598 0.10768086
000170 fd 52 26 3e 1f 12 36 3d 4b 11 21 be f6 94 e1 bc
       0.16242595 0.044450875 -0.15729253 -0.02753685
000180 92 d9 ab bd 4b 30 21 3e 17 8d 83 3d 03 65 71 be
       -0.083911076 0.15741079 0.06423395 -0.23573689
000190 85 5c 39 3e c2 a1 51 3e de d4 71 3b a9 e4 7d bd
       0.181017 0.20471862 0.003690056 -0.061985645
0001a0 16 db ac be ec 12 ab 3d d5 d2 c6 bc f3 ef 46 3c
       -0.337609 0.083532184 -0.024270454 0.012142169
0001b0 a5 2b 22 bd 5b ac ab bc c4 72 37 bb 06 ec 00 3e
       -0.039592404 -0.020956209 -0.002799199 0.12590036
0001c0 e6 93 d9 3a ae 97 6b 3d 12 81 47 3d 31 e6 39 bd
       0.0016599863 0.0575177 0.048707075 -0.045385543
0001d0 c1 cd 22 be df a1 ca bb 72 16 02 3e 46 ed d1 3d
       -0.15898801 -0.0061838473 0.12703875 0.102503344
0001e0 e8 26 c4 bc 53 9c 8b bd 5b cb e8 3c f9 c1 4a 3d
       -0.023944333 -0.06816926 0.02841728 0.049501393
0001f0 c3 00 47 3d 2f 1e 6a bc df c3 17 be 14 5e 0d bb
       0.04858471 -0.014289423 -0.14820813 -0.0021570968
000200 fb a1 85 bc 1e 50 28 be 9f bd ec bd b9 6d 67 bd
       -0.01631259 -0.16436812 -0.11559605 -0.056501124
000210 f5 9d 09 3d 7f 2d 9d 3d 76 fb 70 3d 96 db d3 3d
       0.033597905 0.07674693 0.05883356 0.10344617
000220 ad 10 45 be 5a af c0 3d e4 70 db 3d 37 0f 09 3e
       -0.19244643 0.09408446 0.107148916 0.1338471
000230 d1 be 3d 3e 9c d0 83 3e 61 e6 c5 be e6 70 bb bd
       0.18529822 0.25745094 -0.38652328 -0.09152393
000240 76 4f ce be a3 0a bb bf d6 5d 04 3c 3c 60 b3 3b
       -0.40295 -1.4612621 0.008079013 0.0054741185
000250 a7 27 95 3c 7f eb c0 be a7 5f 1d be f6 af a1 be
       0.018207384 -0.3767967 -0.1536852 -0.3157956
000260 f9 35 92 bd 08 30 34 3c 35 1e 71 3e be 1e b9 be
       -0.07139201 0.01099778 0.2354668 -0.36156267
000270 b5 5e bd bd e2 d7 9f be d7 8c 13 3d f5 1c be bc
       -0.092465796 -0.31219393 0.036022987 -0.023207167
000280 5c 41 2f be 15 0a d0 be b3 37 98 be a9 a4 d7 bd
       -0.17114776 -0.40632692 -0.29729995 -0.10529453
000290 a0 a9 2a be 94 b1 38 be ee 51 a6 3d a8 9d 4e be
       -0.1666627 -0.1803649 0.081210956 -0.20177329
0002a0 e5 9c 05 be 17 ba c8 3d a0 69 63 bc a8 2d 75 be
       -0.13048132 0.09801119 -0.013880163 -0.23943198
0002b0 ce 11 d2 3d 9d 93 ad 3c f3 21 19 be a8 f1 d3 3c
       0.10257302 0.021188552 -0.14954357 0.025872067
0002c0 b7 a9 d1 bd 99 01 69 be c6 a3 b1 3d cd a0 6f be
       -0.10237449 -0.22754516 0.086738154 -0.23401184
0002d0 3d 68 80 b9 6a 3e f9 bc 5c ed a8 3d 23 61 03 3d
       -0.00024491726 -0.03042527 0.08248398 0.03207506
0002e0 e0 98 90 3d 40 71 8b 3c f4 c8 fc 3c 93 b9 fe bd
       0.070604086 0.017021775 0.03085754 -0.12437739
0002f0 d9 e5 f5 bc 19 f8 18 3e f4 1c e3 3d e0 d9 92 3e
       -0.030016826 0.14938392 0.11089507 0.2868185
000300 1b 1b 8f bd 1c a1 69 be 6d 7b 94 be 11 44 8a be
       -0.06987592 -0.22815365 -0.29000416 -0.27005056
000310 82 e6 21 3d 29 7b 9c bc 3f 2f aa 3c c6 8e ef 3d
       0.03952647 -0.019101696 0.020774482 0.11697154
000320 25 ae 80 bd 42 1c 28 3e 2a 00 ca bd e1 7e 05 be
       -0.062832154 0.1641703 -0.098633125 -0.13036682
000330 ef fb b1 bd 37 54 68 3b 96 45 89 bc 04 55 21 3e
       -0.08690631 0.0035450587 -0.016756814 0.15755087
000340 82 f9 da 3d cb 2b 5c 3d 3b 33 e0 bd be a4 29 bd
       0.10692121 0.0537527 -0.109472714 -0.041416876
000350 03 04 3e bb 38 c9 3f 3e 47 fd 75 3e 97 ae 1a bd
       -0.002899409 0.18729103 0.24022399 -0.037764158
000360 73 e9 b3 3d 2f 89 a2 bd 56 a8 51 3d 7a 66 d1 bd
       0.08784761 -0.07936322 0.05118593 -0.10224624
000370 21 41 53 3d 0b 55 a6 3b c3 b3 d5 bc 11 cd ff 3d
       0.051575784 0.005076056 -0.026086694 0.12490285
000380 cb 75 0a be 74 10 fc bd 6e 66 8b be 9c 20 4e bc
       -0.13521497 -0.12307826 -0.27226585 -0.012581017
000390 f5 c5 ce bd ca e4 74 bd ca cf 79 39 50 2e 6b 3e
       -0.10096351 -0.059788503 0.00023823898 0.22966886
0003a0 d7 b4 f0 3c 8c 9e db bd 5d be 0a 3e 0d bf 69 3d
       0.029383106 -0.107236 0.1354918 0.057066966
0003b0 e8 08 77 3e 38 bd 4f bd 5f 04 3f bd 4e 18 1a be
       0.24124491 -0.050717562 -0.046635028 -0.15048334
0003c0 33 30 c6 3d 32 01 8a bc 51 d2 33 be 5b 84 2f be
       0.09677162 -0.016846273 -0.17560698 -0.17140333
0003d0 f8 e1 9b 3d 40 ce 0c 3e 5c a8 b9 3e 2a 7a 4c be
       0.076114595 0.13750553 0.3626126 -0.19968477
0003e0 79 19 9b bd 30 db dc 3b 89 03 42 3d 8d 54 85 bd
       -0.07573218 0.0067399964 0.047366653 -0.065102674
0003f0 bd de f6 3d ff 5a d6 bd 57 ef 28 be b9 72 b4 3d
       0.12054203 -0.10466575 -0.16497551 0.08810944

fc1.bias f4 [64]
000000 10 f0 d9 3d 22 5f 69 3b c4 7c 1f be 7b 4b 94 bd
       0.106414914 0.0035609682 -0.15574938 -0.07240959
000010 7b a9 aa 3d 28 ff 7d bd 58 7a e5 bd db 63 1f 3d
       0.08333107 -0.062010914 -0.11204976 0.03891359
000020 01 b0 87 3d 6d 09 30 be aa b2 00 3e 54 0c 30 3e
       0.06625367 -0.17191096 0.12568155 0.17192203
000030 b0 4d 84 3e 30 56 32 3e b3 12 a7 bd 39 e3 61 bd
       0.2584052 0.1741569 -0.081578635 -0.055148337
000040 2f 66 51 3c 0c 23 34 3d f2 2c 58 3d 07 64 38 be
       0.01278071 0.043978736 0.05277724 -0.18006907
000050 12 d4 c1 bd a8 06 ea 3d d7 8e f1 3c d4 30 e4 bd
       -0.09464277 0.11427051 0.029487057 -0.11142126
000060 7f 59 08 be ea 01 99 3d 79 34 8a bc b7 d3 41 be
       -0.1331539 0.07471068 -0.016870724 -0.18928419
000070 e5 01 04 3e a4 23 08 3e ad 83 c9 bd f4 cd 16 be
       0.12891348 0.13294846 -0.09839568 -0.14727002
000080 42 32 f0 3d dc 72 8e bc f3 43 ac bd 2c cd 00 3d
       0.11728336 -0.017388754 -0.08411398 0.031445667
000090 7e 5c 80 bd 34 f7 4f 3d 80 9d b6 bc 08 4b 78 bd
       -0.062676415 0.05077286 -0.022291899 -0.06061843
0000a0 ae e2 44 bd 0c 8e ac bc 9d 5c 27 be 4e ae 00 3e
       -0.04806774 -0.021063827 -0.16343923 0.12566492
0000b0 ea 31 28 3d f4 ff 91 bd fb 07 4d 3d 40 fc 0e be
       0.041063227 -0.07128897 0.05005644 -0.13963413
0000c0 dc b0 1c be 4f a7 6d 3c 3c 92 1e be 95 7c 06 3e
       -0.15301841 0.0145052215 -0.15485471 0.13133462
0000d0 97 3f 15 bc ba b2 72 bd 72 cd 38 be a7 e9 a0 3d
       -0.009109399 -0.05925248 -0.18047121 0.07857066
0000e0 e2 e7 a4 3d 13 87 f7 bd 0e c8 0e be c3 e0 9f bd
       0.08052041 -0.1208631 -0.13943502 -0.07806542
0000f0 ae f4 52 bc 9d a8 13 3e be 63 b5 3d 8c c5 e2 bb
       -0.012875719 0.1441979 0.08856915 -0.006920522

fc2.weight f4 [64, 64]
000000 b4 b8 a1 bd 22 5e 1f 3e 89 db 1b be 03 0a 2a bd
       -0.078965575 0.15563253 -0.15220465 -0.041513454
000010 fd 95 65 3e 4e 61 6c 3c bc bb 19 3d 34 ab 9f bb
       0.22420497 0.014427496 0.037532553 -0.004872704
000020 a0 da 29 3c d0 d9 0c bd d7 04 e8 bc e4 94 a5 3e
       0.010367066 -0.03438741 -0.02832262 0.32340157
000030 9a 8a 6a be 2a e7 b2 3d 1b d3 17 be df 84 a6 bd
       -0.22904435 0.08735497 -0.14826624 -0.08130812
000040 f1 62 a5 3c f8 30 54 be aa a7 24 bd 41 91 4c bc
       0.02018878 -0.20721805 -0.04019896 -0.012485803
000050 d9 2c 98 3d 41 50 54 bd 61 64 57 3e 39 6f 03 bd
       0.07430429 -0.05183435 0.21034385 -0.032088492
000060 64 ef 6f be df 40 0d bb 30 56 4a 3e 11 11 1b 3e
       -0.23431164 -0.0021553559 0.1975944 0.15143229
000070 3f 05 24 be da d3 e6 3d d8 8f 4d 3d 3a 7a 96 3b
       -0.16017626 0.11270876 0.05018601 0.0045922073
000080 e7 0b 08 3e aa df 5c bd 7e da b1 bd fe 38 2a bd
       0.1328579 -0.05392424 -0.08684252 -0.04155826
000090 be 44 8d be 43 ad a1 3e 04 6e 50 be 53 be 08 be
       -0.2759151 0.315775 -0.20354468 -0.13353853
0000a0 79 31 e2 be fe ca 26 bd 7d 43 0d 3e 58 9a 98 bd
       -0.4417837 -0.040720932 0.13795276 -0.07451314
0000b0 e9 28 2a 3d 5d 64 83 bd f4 1b 58 bd 9f 8e 4e 3e
       0.04154292 -0.06415627 -0.052761033 0.20171593
0000c0 08 07 d8 3b 5b 3a 00 3e 03 a1 1d be 40 e0 45 3d
       0.006592635 0.12522261 -0.15393452 0.048309565
0000d0 8a 22 83 bd 26 ed 0d bf 4b 4b 32 3e 77 49 ef bd
       -0.06403072 -0.55439985 0.17411534 -0.11683934
0000e0 e8 f3 ad bd a7 d9 50 bd af 01 94 bc 8e ae c3 3d
       -0.08493787 -0.05098882 -0.018067209 0.09554778
0000f0 f0 bc fd bc 67 ef 16 3e 5f c5 1c be 43 58 f0 bd
       -0.030973881 0.14739762 -0.15309666 -0.117355846
000100 08 81 01 3e 8b 05 35 3e 31 04 cc bd ed 5d fa bd
       0.12646878 0.17677896 -0.09961737 -0.12224946
000110 bc cc 99 bd 8f e3 b4 3d 30 75 08 be c6 b6 06 3e
       -0.07509753 0.08832466 -0.13325953 0.1315566
000120 7c b2 e8 bd d6 e8 5b be 6f 15 38 3c 4c 88 d3 3e
       -0.11362168 -0.21475539 0.011235579 0.41314924
000130 18 bb 82 be 06 19 0e 3d 15 48 db bd 98 b9 b9 bc
       -0.25533366 0.034691833 -0.10707108 -0.022671506
000140 cd 88 e9 3d 14 ca 09 be ad d6 06 be f6 eb 0e bd
       0.11403046 -0.13455993 -0.1316783 -0.034893
000150 63 c9 f3 3d f0 80 f5 bd d8 aa 05 3e 9d f0 d6 bd
       0.11903646 -0.119874835 0.13053453 -0.10495112
000160 ed c3 92 be ca bb 26 3e 56 8f 0b be f6 98 1b be
       -0.28665105 0.16282573 -0.13628897 -0.15195069
000170 42 d8 ad bd 90 e0 15 be 5c fe c1 3c 66 e2 d6 be
       -0.084885135 -0.14636445 0.023680858 -0.41969603
000180 e9 09 c0 bd 9a b7 fb 3c 14 cd c0 bd 73 25 00 be
       -0.0937689 0.030727196 -0.094141155 -0.12514286
000190 04 79 41 bd 81 47 9a 3e 95 dc 54 be 8b c3 0d be
       -0.04723455 0.30132678 -0.2078727 -0.13844125
0001a0 90 df b4 bd 8b 40 fb 3c 8a 1c 76 3e b5 6f 88 bd
       -0.08831704 0.030670425 0.24034324 -0.066619314
0001b0 6b fe 59 3d 8f 60 73 bd 7a 7d 29 be 24 89 88 bd
       0.053221148 -0.059418257 -0.16551772 -0.066667825
0001c0 0c a1 51 be fb 88 f7 bc 5d 69 13 be 08 ff c5 3d
       -0.20471591 -0.030216685 -0.14395662 0.09667784
0001d0 21 f6 11 be 84 e4 19 bf 17 f3 d3 3b 75 ec 09 be
       -0.14254047 -0.6011431 0.0064681876 -0.13469107
0001e0 ef 85 cc bd c5 42 f3 bd 4f 94 47 3e 6a f5 c7 bc
       -0.09986483 -0.1187797 0.19490169 -0.024409015
0001f0 53 b6 53 be 35 85 12 3d 33 9f 9b 3c ce f9 3d be
       -0.2067502 0.035771567 0.01899681 -0.18552324
000200 2f 14 a0 ba ac b7 0e be 94 65 32 bd d5 6a 79 3e
       -0.0012213046 -0.13937253 -0.043553904 0.2435716
000210 8a 98 4b 3c 62 b9 cd bb 7b a9 8c bc 51 a1 a4 bc
       0.012426505 -0.006278203 -0.017170658 -0.020096453
000220 98 20 61 3e ed 09 90 3d 6d f2 9b 3d 28 ec 7a be
       0.2198509 0.07033143 0.076145984 -0.24504149
000230 b5 20 31 3e ad 23 cc 3c 88 73 0c be 1e 9e 84 bd
       0.17297633 0.024919355 -0.13715947 -0.06475471
000240 c9 9b f9 bc ce 2b ae 3e 67 5c b3 3a 0b f9 1d be
       -0.030469792 0.34017795 0.0013684154 -0.15427034
000250 9f d2 07 bd 40 51 6a 3d 99 b8 63 be cc 05 c3 bd
       -0.03315985 0.057206392 -0.22238387 -0.0952259
000260 43 87 66 be c5 3e d7 3d b4 c0 52 3d 76 b1 29 37
       -0.22512536 0.10510019 0.051453307 1.0114503e-05
000270 2e 95 7c be de 8d 9c 3e 2b 4b 7d bd 01 43 82 bd
       -0.24666283 0.30576986 -0.061839264 -0.06360436
000280 79 ce 13 bd 57 fa d8 bc 52 b3 7b bd 94 38 77 bc
       -0.03608558 -0.026486559 -0.06145031 -0.015089173
000290 1a d8 62 3d 93 fa 5b be 80 7a 5d 3e 72 79 b6 3d
       0.05538187 -0.21482305 0.21628761 0.089098826
0002a0 79 05 99 3e 8f 01 8a be 18 cd 65 be 6e 14 16 be
       0.29886988 -0.26954314 -0.22441518 -0.14656231
0002b0 83 85 9c 3c 43 9e 93 bd b9 f7 0c 3b 3b 38 ca 3c
       0.019106632 -0.072079204 0.002150996 0.024685016
0002c0 6e dc 43 bd 9f 79 22 be f0 04 15 bd ce 34 99 ba
       -0.04781764 -0.15866707 -0.036381662 -0.0011688711
0002d0 45 38 b0 be e9 43 f9 be 1b cf ad bd fa 7d 8f bc
       -0.3441793 -0.48684624 -0.08486768 -0.017516125
0002e0 4f 56 19 be ad 4b 05 bd 99 75 50 3c c9 ad 2a 3c
       -0.1497433 -0.032542873 0.01272335 0.01041741
0002f0 28 e0 38 3d 8b 7a 45 be 84 f4 45 be d9 22 9f bd
       0.045135647 -0.19285028 -0.19331557 -0.077703185
000300 74 82 f5 3c 34 72 40 be 0a 83 c2 3d 6e 21 20 3b
       0.029969431 -0.18793565 0.0949765 0.0024433988
000310 3c e6 56 3d 33 5d 23 bc 88 10 6e be ea ab 1d be
       0.052465662 -0.009970951 -0.23248494 -0.15397611
000320 f6 82 d2 3d 10 d9 5c bd 68 33 6b be 94 5a b1 be
       0.10278885 -0.053917944 -0.22968829 -0.34639418
000330 79 bc 1a be 3d 21 c1 3d 6d 88 ab bc 8e 96 a2 bd
       -0.15110959 0.09430168 -0.020939076 -0.07938872
000340 3d 24 be 3c b0 61 77 3c e4 27 74 bd 68 d8 0e bd
       0.02321064 0.015098974 -0.059608355 -0.03487435
000350 38 76 7b bd 06 98 9e bd ef f1 16 be 94 b8 d1 3d
       -0.06139204 -0.0774384 -0.14740728 0.102402836
000360 76 22 95 be ab 90 30 3d 5f 6b f3 3d 8a 5b 83 bd
       -0.29127854 0.043106716 0.11885714 -0.06413944
000370 50 1d 17 3d 4e 52 19 3e f5 c8 9b be 3b ed 22 3d
       0.03689319 0.14972803 -0.30426756 0.03977702
000380 14 44 66 3d 59 42 05 bd de 68 8b 3d d9 3f 1a 3e
       0.056217268 -0.032533977 0.06807111 0.15063418
000390 5f ba 41 bd aa 40 51 be 0e b1 24 3f 66 03 60 3d
       -0.047296878 -0.20434824 0.64332664 0.05469074
0003a0 d4 d7 2b bf 73 19 c3 bd ec ae 91 3d f1 85 02 be
       -0.671262 -0.095263384 0.07113442 -0.12746407
0003b0 35 72 1d 3d be 17 0a be 6b 23 13 3d 74 e6 b6 bd
       0.038438994 -0.1348562 0.03592245 -0.08930674
0003c0 04 a6 8c 3d 2c 3d 99 3d 54 ce c8 bd f8 81 94 3d
       0.068676025 0.07482371 -0.09804979 0.07251352
0003d0 ff 88 d2 3d 0a 89 c6 3e 37 f1 38 be b0 87 c0 3d
       0.10280036 0.38776428 -0.18060766 0.0940088
0003e0 59 7e 9d be ef b3 d3 bb 27 44 f5 be 32 7d 53 3d
       -0.30760458 -0.0064606587 -0.4790356 0.051633067
0003f0 ac b1 ae be ab 95 81 3d 7f af 3a 3e 87 0b 16 bd
       -0.34119928 0.06327375 0.18231009 -0.036632087

fc2.bias f4 [64]
000000 0e e0 20 bd 65 51 66 bd 1d 83 22 3d 45 9c fc 3d
       -0.039276175 -0.056229968 0.03967582 0.123344935
000010 0a ab 89 3e a8 11 1e be b9 b2 66 bd 49 ff 4d 3d
       0.26888305 -0.15436423 -0.056322787 0.050292287
000020 86 ba 11 3e e4 8d ba 3e 62 5d d2 bd 96 e3 06 3e
       0.1423131 0.3643638 -0.102717176 0.13172755
000030 d9 9b 94 3d 1d 4b a9 bd 3b 78 11 3d 83 94 9b 3d
       0.07256288 -0.0826628 0.03551505 0.07596686
000040 66 c0 d4 3d b3 11 8b bd c6 df 85 bd eb 4e fb 3d
       0.103882596 -0.06790485 -0.06536822 0.12270912
000050 15 e5 61 3e 7c 2d e9 3e 5e 5f 5f be 3d 4a f1 bd
       0.22060044 0.45542514 -0.21813723 -0.11781738
000060 89 1d ad bd d7 29 fb bd f5 87 ae 3d 96 e1 df bc
       -0.08452899 -0.1226384 0.085220255 -0.027329247
000070 bb eb b5 bd 43 c2 b2 3d 2c 1d bf 3d 85 05 62 bd
       -0.08882853 0.08728459 0.09331736 -0.055181045
000080 a8 9e f6 3c 42 09 05 3d ce 90 14 bd 2d e7 be bd
       0.03010495 0.032479532 -0.03627091 -0.09321437
000090 7b eb 4e bd 78 35 c3 bd 8e 02 25 bd 84 ad b3 bc
       -0.05051754 -0.09531683 -0.04028564 -0.021933325
0000a0 5b a9 cf bd 7b 51 cf 3e 7c 54 98 3e c1 c9 3d bd
       -0.10139724 0.40491852 0.29751956 -0.046334986
0000b0 d3 de 97 3d 2a d4 da bd 3b ef 78 3e 58 d9 db bd
       0.07415547 -0.10684998 0.24310009 -0.107348144
0000c0 09 20 d2 3c b3 3f 9d bd 13 cf 44 bd 40 75 bd 3e
       0.025650041 -0.07678165 -0.048049044 0.37003517
0000d0 a2 ac 7e 3d c4 28 cb bd da a0 b6 3d ab 80 18 be
       0.062176354 -0.09919885 0.08917399 -0.14892833
0000e0 00 d6 0e be 9b d9 11 be 27 73 ea 3a d0 b3 5b bd
       -0.13948822 -0.14243166 0.0017887101 -0.05363828
0000f0 a3 9b a9 3d d8 64 8f 3e af 5d 92 3d 0f 1f a1 bd
       0.082816385 0.28006625 0.07146775 -0.07867252

fc3.weight f4 [4, 64]
000000 21 b1 bb 3e e4 a3 8b 3e e4 47 8f 3e 21 e1 64 3e
       0.36658576 0.27273476 0.27984536 0.22351505
000010 d3 4a 0d 3e 9b 69 45 bd 2c 16 ce 3e 8e 99 98 be
       0.13798074 -0.048196416 0.4025129 -0.29804653
000020 8a ff 25 3c fe 3b eb 3d 2f f4 24 be 11 87 33 be
       0.010131726 0.11486052 -0.16108774 -0.17531992
000030 6b 6b d7 bc 53 16 4d be c7 d8 6d 3e b5 58 85 bd
       -0.026296338 -0.20028047 0.23227225 -0.0651106
000040 2e b4 46 3e 8e bb 7c bd d0 a7 0f be e2 8d 25 3e
       0.1940467 -0.061702304 -0.14028859 0.16167405
000050 a8 e3 b7 3d 58 85 07 3e cf f8 37 bd 3d 25 99 be
       0.08978969 0.1323446 -0.044915017 -0.29911223
000060 50 d5 12 3c 1b d9 33 be 03 5d ed be 54 0b 3c bd
       0.0089619905 -0.17563288 -0.46360025 -0.04590924
000070 c3 59 12 3f be 1d c9 3e bf 95 98 be 67 8e 9f 3d
       0.57168216 0.39280504 -0.29801747 0.07790833
000080 72 b3 20 3e a5 a1 0e 3c e9 d1 a4 3e ef 88 2f b9
       0.15693453 0.008705531 0.321914 -0.00016740312
000090 6c 76 8f 3e f4 39 9a be ae f4 50 be 92 be e9 3e
       0.28020036 -0.3012234 -0.20405838 0.45653206
0000a0 26 be 6f 3d 37 4c 21 3e ba f8 da 3d fc 3b 2b bd
       0.05853095 0.1575173 0.10691972 -0.041805252
0000b0 72 d9 42 3e 29 e7 e9 3d ae 3d 39 3e 11 b8 3c 3d
       0.19028261 0.114210434 0.18089935 0.046073977
0000c0 8e 32 8a bd c9 2b 84 3d 77 e1 4d 3e c4 94 09 3e
       -0.06747924 0.06453664 0.2010554 0.13435656
0000d0 ce bd 84 3e 97 2a ea 3b 76 bf c4 3d c2 7a eb bd
       0.2592606 0.0071461904 0.09606831 -0.114980236
0000e0 07 6b 19 be ea ad 9d be 08 dd 62 3d 10 7d ec 3d
       -0.14982234 -0.30796748 0.055386573 0.11547291
0000f0 46 aa 39 bd a3 77 42 3e 88 4b 01 bd b6 4a 20 3c
       -0.0453284 0.1899095 -0.031566173 0.0097834375
000100 12 57 93 3e be 4d 90 3e 6e c1 69 3e b5 9d 4c 3e
       0.28777367 0.28184313 0.22827694 0.19982035
000110 e8 9b e4 3d cd b7 a5 3d ed a0 b6 3e 06 2b f2 bd
       0.11162549 0.08091698 0.35669652 -0.11824612
000120 5c 02 70 3d d3 17 da 3d 0a f0 4e be ce f3 73 bd
       0.058596 0.10649075 -0.20208755 -0.059558682
000130 46 d7 e0 3c 0c 49 88 3e 23 5d b0 3e c0 f5 ae 3d
       0.0274464 0.2661823 0.34446058 0.08542967
000140 8e 7e a3 3d 1c aa 8c 3e 70 a8 e9 be b5 19 14 3e
       0.07983123 0.27473533 -0.4563632 0.14462931
000150 e9 ab 00 3e 8a be 58 3e 5a 18 3e be 46 9b 26 be
       0.12565579 0.21166435 -0.18563977 -0.1627017
000160 24 c1 02 be 7d 32 e5 bd c0 2a 03 3e 9f 0f 9f 3b
       -0.1276899 -0.111912705 0.12809277 0.004854157
000170 42 ac 8d 3e 20 35 be 3e be 07 3c be 01 56 38 3e
       0.27670485 0.37149906 -0.18362328 0.18001558
000180 1e 02 3f 3e 23 61 93 bc 9f e5 c9 3e 24 99 73 bd
       0.18653151 -0.017990654 0.39433 -0.05947222
000190 1c a7 6c 3e 22 e3 8d be f7 0f 8c 3c e5 db be 3e
       0.23110622 -0.2771235 0.017097456 0.3727714
0001a0 93 c1 ce 3c 6e ed 16 3e 6c 0b 0f 3d ed ea 11 3e
       0.025238788 0.1473901 0.034923002 0.14249773
0001b0 bd 2b 01 3f 57 62 09 bd 8f a5 44 3e 70 4b b3 3e
       0.50457364 -0.03354105 0.1920378 0.35018492
0001c0 5d 8f 8e 3d 05 94 86 3d c1 5d 4b 3e 70 88 6e 3d
       0.06960938 0.06571201 0.19859983 0.058235586
0001d0 b9 91 62 3e 1c 50 95 3d 06 10 b7 3d 2b 19 8a bd
       0.22125901 0.0729067 0.08938603 -0.06743082
0001e0 47 50 96 be 19 8e 40 be c6 45 8d 3c ca a2 15 3e
       -0.29358122 -0.18804206 0.017245185 0.1461288
0001f0 e6 79 0a be f7 2a 1d 3d 6a a5 0c be 95 32 8a 3e
       -0.13523063 0.038371053 -0.13734975 0.26991716
000200 db ee 66 3e 08 6d 84 3e bc a3 18 3e 93 dc b1 3e
       0.22552054 0.25864434 0.1490621 0.34738597
000210 ea b6 11 3e 3b 68 48 3e b2 49 db 3e 87 bd 45 be
       0.14229932 0.19571011 0.42829663 -0.1931058
000220 6e fa c2 3d 17 eb da 3d 93 16 a5 be 8d 52 b5 3e
       0.09520422 0.10689371 -0.32243785 0.35414544
000230 30 b3 f3 3c 36 59 d9 be 32 7e 11 3e d3 af 2f 3e
       0.02974853 -0.42450875 0.14208296 0.17156915
000240 b4 89 8d 3e 67 8d cc 3d b7 8d 50 3e d9 50 ac 3d
       0.27644122 0.09987908 0.2036656 0.08413858
000250 5f b4 a5 3d 80 0d 4b 3e e9 4e f4 bd 5c bf c5 3d
       0.08091044 0.19829369 -0.119291134 0.096556395
000260 ec 77 95 3e e7 bf 43 3e f4 31 13 be 23 2d 8e be
       0.29193056 0.19116174 -0.14374524 -0.27768812
000270 ed 76 1a 3f d2 eb ce 3e 59 d4 50 be b6 87 ce 3a
       0.60337716 0.40414292 -0.20393504 0.0015756998
000280 09 e4 d9 3d e4 6b 69 be 9d 21 f7 3e 8e 4f ce 3d
       0.106391974 -0.22795063 0.48267832 0.100737676
000290 73 95 47 3e f9 97 84 be bb 5a a1 be c5 b4 f8 3d
       0.19490604 -0.25897196 -0.31514534 0.12143854
0002a0 26 cb 46 be fc aa 1c 3e 28 f2 15 3e 90 b0 0f be
       -0.19413432 0.152996 0.14643157 -0.14032197
0002b0 57 4d 30 bd 58 56 d3 bd 31 57 1f 3e 2d 47 24 3f
       -0.043042507 -0.10319203 0.15560605 0.64171106
0002c0 cc ac ef 3d 00 07 5d 3e b3 5d 17 3e 37 83 3f 3e
       0.1170288 0.21584702 0.14781837 0.18702398
0002d0 8c b2 76 3d aa 5c 2f 3e 55 a4 22 3e af 98 8f 3d
       0.06022887 0.17125192 0.15883 0.07011544
0002e0 26 e7 cd be 8c 6b cf bd c5 11 8a 3e f8 bb da 3d
       -0.40215415 -0.10127935 0.26966682 0.106803834
0002f0 0a 5e 11 bf bf 76 d8 3d b1 af 13 bf 7a 7b 93 3e
       -0.5678412 0.10569524 -0.5768996 0.28805143
000300 1f f6 55 3e 6f cb 11 3f 0e 83 36 3e 7f ec 37 3e
       0.20894669 0.5695104 0.17823431 0.1796131
000310 95 e4 58 3d 3e 9c 84 be c0 1c bc 3e b1 0e 83 bc
       0.052952368 -0.25900453 0.36740685 -0.015998216
000320 2b 74 f2 3d ca cd 3f 3e 6e e7 86 bc d1 3f 83 be
       0.118385635 0.18730846 -0.016467776 -0.25634626
000330 ef da 63 3e bb 7a ef bd 2d db 8c 3e 6a ec 4d bd
       0.22251485 -0.11693331 0.27510968 -0.05027429
000340 ef 16 91 3e af 2d bf 3e e8 4e f2 3c 64 b8 37 3e
       0.2833781 0.3733954 0.029578641 0.17941433
000350 d2 06 2e 3d 4e 77 67 3e c1 66 b3 be 4b 87 cf bc
       0.042486973 0.22604105 -0.35039333 -0.025333067
000360 38 12 3a 3e 1d d2 1d bf 70 b7 e6 bc 6d 4e b6 3e
       0.18171012 -0.6164873 -0.028163642 0.3560671
000370 7f c4 9e 3e a1 eb 11 bd c5 20 70 be 20 03 44 3e
       0.3100929 -0.035625104 -0.2345 0.19141817
000380 f5 41 88 3e 65 50 00 3d 23 84 bb 3e 4e e3 3a 3c
       0.2661282 0.03132667 0.3662425 0.011406733
000390 0f 83 ac bc 8f 4e 20 be b3 81 84 3e b3 01 04 3f
       -0.021058587 -0.15654968 0.25880203 0.5156509
0003a0 c1 c5 da be 35 d5 28 3e 44 2c 01 3e 34 57 11 bf
       -0.42729 0.16487582 0.12614542 -0.56773686
0003b0 f8 e9 1d 3f fa 63 4e be 48 bf fe 3d 2a 6d 8b 3d
       0.61685133 -0.20155326 0.12438828 0.06807931
0003c0 4b 89 19 3d c1 d9 ee 3d 54 d8 db 3e e7 10 1e 3e
       0.03748445 0.11662627 0.42938483 0.15436135
0003d0 f0 42 e0 3d fe 63 b2 bd 93 72 53 3d 9a 3d e3 3d
       0.10950267 -0.08710478 0.05162294 0.11095734
0003e0 26 43 6d be 70 8d fb bd 3a b3 cf be c8 7e 57 bd
       -0.23170146 -0.122828364 -0.40566427 -0.052611142
0003f0 81 fa ba be 58 49 d9 3d f2 68 8d be b0 55 88 3e
       -0.36519244 0.10609692 -0.2761913 0.26627874

fc3.bias f4 [4]
000000 8d 94 89 3e 56 37 74 3e 19 27 ef 3d d0 fd 22 3e
       0.26871148 0.23849234 0.11677379 0.15917134
